median-model.onnx (onnx, 277683 bytes, 9 tensors)

input.weight f4 [256, 6]
0	0x4332332c	178.19989
1	0xc390ef5d	-289.87003
2	0xc405e694	-535.6028
3	0x441a69ff	617.6562
4	0xc376a506	-246.64462
5	0xc3c62ddc	-396.35828
6	0xc3b082fa	-353.02325
7	0xc4957e59	-1195.9484
8	0xc45937fd	-868.8748
9	0x4478fc4b	995.9421
10	0xc3824f0f	-260.61765
11	0xc378d067	-248.81407
12	0x427c3ab9	63.057346
13	0xc4102ce1	-576.70123
14	0xc41cadde	-626.7167
15	0x4438ac65	738.69366
16	0x437f716b	255.44304
17	0x42f4436b	122.131676
18	0xc38a3d2a	-276.47784
19	0xc484e7a6	-1063.239
20	0xc44d4eab	-821.2292
21	0x44859b0c	1068.8452
22	0xc395674e	-298.80707
23	0xc3823177	-260.38644
24	0x43add1ea	347.63995
25	0x44a15455	1290.6354
26	0x446bb650	942.84863
27	0xc48b5ca8	-1114.8955
28	0x4377fb46	247.98154
29	0x435d19c5	221.10066
30	0x43c7f3f5	399.9059
31	0x446c689d	945.6346
32	0x4445c153	791.0207
33	0xc475b64e	-982.8485
34	0x438acc1f	277.5947
35	0x439d2363	314.27646
36	0x439c9105	313.13297
37	0x4499ef41	1231.4767
38	0x447537ad	980.86993
39	0xc4910994	-1160.2993
40	0xc319b889	-153.72084
41	0x4359905a	217.56387
42	0x4397bcf4	303.4762
43	0x445db939	886.8941
44	0x4421c015	647.0013
45	0xc42e45c9	-697.0904
46	0x43a6f41c	333.9071
47	0x4360773c	224.46576
48	0xc3bc381a	-376.4383
49	0xc4a175c4	-1291.6802
50	0xc460d39e	-899.3065
51	0x447daf9d	1014.74396
52	0x4372b16d	242.69307
53	0xc36c54f3	-236.33183
54	0x43b536c0	362.42773
55	0x447b5c48	1005.4419
56	0x4445c9bb	791.15204
57	0xc43e4efd	-761.2342
58	0xc3505142	-208.31741
59	0x43855b5e	266.7138
60	0x43b1c135	355.50943
61	0x448d7b97	1131.8622
62	0x44597904	869.89087
63	0xc45cc91d	-883.1424
64	0x42d9d7c5	108.921425
65	0x43827c56	260.97137
66	0x43bfe474	383.7848
67	0x449ece97	1270.4559
68	0x446052f9	897.29645
69	0xc47c5c04	-1009.43774
70	0xc3809a84	-257.20715
71	0x43536082	211.37698
72	0x4393eb16	295.8366
73	0x44974971	1210.295
74	0x4475e356	983.5521
75	0xc48a176c	-1104.7319
76	0x43252796	165.15463
77	0x43485c7a	200.36124
78	0xc38433e9	-264.40555
79	0xc41bf0c6	-623.7621
80	0xc442f6d0	-779.85645
81	0x448f3751	1145.7286
82	0x434cfc9e	204.98679
83	0xc3b464c5	-360.78726
84	0x439c8d58	313.10425
85	0x44809cb9	1028.8976
86	0x444a4a56	809.1615
87	0xc4680f57	-928.2397
88	0x434bc1c7	203.75694
89	0x43954df2	298.60895
90	0x43a4bfef	329.49948
91	0x44911465	1160.6373
92	0x445b9245	878.28546
93	0xc4833831	-1049.756
94	0x4384e18f	265.76218
95	0x438431ea	264.38995
96	0xc328fde7	-168.9918
97	0x4478543d	993.3162
98	0x444e060d	824.09454
99	0xc44dbc81	-822.9454
100	0x43684f9d	232.31099
101	0x439425f5	296.29654
102	0x434ecdbf	206.8037
103	0xc44d13e6	-820.3109
104	0xc42c0289	-688.0396
105	0x4423c965	655.1468
106	0xc33b58fe	-187.34763
107	0xc3972c74	-302.3473
108	0x43a3e692	327.80133
109	0x449ee3a7	1271.1141
110	0x446e154c	952.33276
111	0xc48a8de4	-1108.4341
112	0xc3a3401f	-326.50095
113	0x43445b98	196.35779
114	0x42d3beca	105.872635
115	0xc464bcf6	-914.9525
116	0xc432775b	-713.8649
117	0x437d33d0	253.2024
118	0xc386f852	-269.94
119	0xc373bec3	-243.74516
120	0x4398a691	305.3013
121	0x43e0b585	449.41812
122	0x441358e0	589.3887
123	0xc433749e	-717.82214
124	0x436fa46c	239.64227
125	0x43b332e6	358.39764
126	0x43c6b3c4	397.40442
127	0x449e9d49	1268.9152
128	0x4453c7d1	847.12213
129	0xc472ae3e	-970.72253
130	0xc383501b	-262.62582
131	0x4382797c	260.9491
132	0xc3c012e9	-384.14774
133	0xc47f9282	-1022.2892
134	0xc43bdf7c	-751.49194
135	0x443bbc21	750.9395
136	0xc3a3cd16	-327.60223
137	0xc39c967a	-313.1756
138	0x43abcaa4	343.58313
139	0x44a62a1c	1329.3159
140	0x446e0a77	952.1635
141	0xc48eec05	-1143.3756
142	0xc38d6fc1	-282.87308
143	0x43452056	197.12631
144	0xc38e2b57	-284.3386
145	0xc43a401e	-745.00183
146	0xc445e660	-791.5996
147	0x448cc913	1126.2836
148	0x4305c7a3	133.77983
149	0xc39d8836	-315.06415
150	0x439f3d85	318.48062
151	0x4398386f	304.4409
152	0x44085a3a	545.4098
153	0xc4378754	-734.1145
154	0x43a38b9f	327.0908
155	0x43d0ff8d	417.9965
156	0x439c9aa3	313.2081
157	0x44654b73	917.1789
158	0x4456681d	857.6268
159	0xc494fa02	-1191.8127
160	0xc39e8273	-317.01913
161	0x438bc088	279.50415
162	0xc3a459a0	-328.7002
163	0xc40a467f	-553.1015
164	0xc42bd142	-687.26965
165	0x444a3b73	808.9289
166	0x43375506	183.33212
167	0xc3c2d22d	-389.642
168	0x43b1af4b	355.36948
169	0x43cb2b9c	406.3407
170	0x440412d4	528.2942
171	0xc423d1e9	-655.27985
172	0x4280524a	64.16072
173	0x43873280	270.39453
174	0x43a6a625	333.298
175	0x443b543c	749.31616
176	0x4434055a	720.0836
177	0xc46f7fae	-957.995
178	0x433fac59	191.67323
179	0x43a73b6c	334.46423
180	0xc3a74b4e	-334.58832
181	0xc481c318	-1038.0967
182	0xc44603c9	-792.05914
183	0x44717f30	965.9873
184	0xc39600ca	-300.00616
185	0xc38cf30a	-281.89874
186	0x43c5eaef	395.83542
187	0x448fd523	1150.6605
188	0x444a500e	809.25085
189	0xc444aec0	-786.73047
190	0x439f1191	318.13724
191	0x437bcfd4	251.81183
192	0x43b72da7	366.35666
193	0x449991e7	1228.5594
194	0x445cc0a7	883.0102
195	0xc47caf6f	-1010.74115
196	0x42a4c1bd	82.378395
197	0x438868f0	272.81982
198	0x43aa43a1	340.52835
199	0x44994926	1226.2859
200	0x446a3548	936.8325
201	0xc48a5f03	-1106.9691
202	0xc30fe799	-143.90468
203	0x4360bcc7	224.73741
204	0x43ad7d7c	346.98035
205	0x44965b7e	1202.8591
206	0x445868d1	865.63776
207	0xc4846c52	-1059.385
208	0x438375cd	262.92032
209	0x4370ef0d	240.93379
210	0x43e7769c	462.92664
211	0x43946118	296.75854
212	0x438e9c9b	285.22348
213	0xc37b09c4	-251.03815
214	0x4381d669	259.67508
215	0x43e35fbf	454.74802
216	0xc30b47ff	-139.28123
217	0x4486e5f9	1079.1866
218	0x4456764b	857.8483
219	0xc476fee0	-987.9824
220	0xc3401b0e	-192.10568
221	0xc3790c8e	-249.04904
222	0x439d3ed7	314.49094
223	0x448df301	1135.5939
224	0x444387df	782.123
225	0xc4774e54	-989.2239
226	0x43376b5a	183.41934
227	0x43897e83	274.98837
228	0xc2f4643a	-122.195755
229	0x43845bef	264.71823
230	0xc19ab63d	-19.338984
231	0x429d00f1	78.50184
232	0xc3a47be0	-328.96777
233	0xc3eeab0d	-477.33633
234	0x43970eaa	302.11456
235	0xc382b95e	-261.44818
236	0x424a70dd	50.610218
237	0xc3297481	-169.4551
238	0x43a72987	334.32443
239	0x43b4bbdc	361.46765
240	0xc3a81e36	-336.23602
241	0xc458e3d5	-867.5599
242	0xc44494c1	-786.3243
243	0x448cc34e	1126.1033
244	0x43954e4f	298.6118
245	0xc3a19f74	-323.24573
246	0xc3acd640	-345.67383
247	0xc4249038	-658.2534
248	0xc43731ea	-732.7799
249	0x446e05ab	952.08856
250	0x438c339e	280.40326
251	0xc3acac20	-345.34473
252	0xc3a7fea4	-335.98938
253	0xc40992b5	-550.2923
254	0xc423c0ff	-655.01556
255	0x444dd45e	823.31824

input.bias f4 [256]
0	0xc3290cb5	-169.04964
1	0xc40e7561	-569.83405
2	0x433a82eb	186.5114
3	0xc3e83a3c	-464.45496
4	0x4405eedd	535.73224
5	0x43e9d0b1	467.6304
6	0x43ed7bea	474.96808
7	0x43d518e3	426.19443
8	0xc40690fc	-538.2654
9	0x43b50981	362.07425
10	0x43fd34f2	506.41364
11	0x4416561a	601.34534
12	0x43d8446d	432.53458
13	0xc32fcc1b	-175.79729
14	0x43b5e8c0	363.81836
15	0x4405348c	532.82104
16	0x43b19ce3	355.22568
17	0xc3b5214c	-362.26013
18	0x4404ad63	530.70917
19	0xc3e2dd5b	-453.72934
20	0x43815a42	258.70514
21	0x4410fc3a	579.94104
22	0xc40888f8	-546.14014
23	0x44001123	512.26776
24	0xc3972236	-302.26727
25	0x434df3f9	205.95302
26	0x43ac0bbb	344.09164
27	0xc37899d1	-248.60085
28	0x43a1e9c4	323.8263
29	0x437e637f	254.38866
30	0xc41201cc	-584.0281
31	0x4408e46b	547.56903
32	0x43f444aa	488.53644
33	0x44097dfb	549.96844
34	0x44031ac7	524.4184
35	0x43b9a4b5	371.28677
36	0xbea06916	-0.31330174
37	0x43521cb1	210.11208
38	0xc2902122	-72.06471
39	0x435e60ce	222.37814
40	0xc39bc67b	-311.55063
41	0xc3a715bb	-334.16977
42	0xc3857a93	-266.9576
43	0xc3d16c8f	-418.8481
44	0xc397b719	-303.43045
45	0x44091602	548.3439
46	0xc3d4351d	-424.41495
47	0xc18e03b0	-17.7518
48	0x43cea6fb	413.30453
49	0x440d2eba	564.7301
50	0xc34bd393	-203.82646
51	0x43a5964e	331.17426
52	0x43ef8073	479.0035
53	0x4394cf05	297.61734
54	0x43f368bf	486.81833
55	0x437e61ca	254.38199
56	0x43cf64e9	414.78836
57	0xc39ce86a	-313.81573
58	0x4241e35a	48.472023
59	0xc3de23f3	-444.28085
60	0xc3bd7cbc	-378.9745
61	0x439b8261	311.0186
62	0xc38a5c83	-276.72275
63	0xc4057133	-533.76874
64	0x440008f9	512.1402
65	0x43a5755e	330.91693
66	0x43b68d36	365.1032
67	0x430a7e71	138.49391
68	0x43b7ed2a	367.85284
69	0xc2d2ce57	-105.40301
70	0xc38038d7	-256.44406
71	0x42fb77aa	125.73372
72	0x435a1d82	218.11526
73	0xc40695f4	-538.343
74	0x4409704f	549.7548
75	0x43d46f7a	424.8709
76	0x4409698b	549.6491
77	0x4401cacf	519.1689
78	0x43bc5826	376.68866
79	0x439611d9	300.13943
80	0xc3799942	-249.59866
81	0x43cc4097	408.5046
82	0x43a91ac1	338.209
83	0x43bbcb9e	375.59076
84	0x43dedd70	445.72998
85	0x4393f813	295.93808
86	0x43ed79f0	474.95264
87	0x43a64bdb	332.59262
88	0xc3d7960c	-431.17224
89	0x43865b11	268.71146
90	0x43b00be2	352.09283
91	0x43f4b7df	489.4365
92	0x43aafb72	341.96442
93	0xc3f289d5	-485.0768
94	0xc3567df4	-214.492
95	0xc3c9cd2c	-403.6029
96	0x43efb057	479.37766
97	0x4371f2bc	241.94818
98	0x43c2eadb	389.8348
99	0xc3e055a4	-448.66907
100	0x43eae90a	469.82062
101	0xc3ef010e	-478.00824
102	0xc3abd422	-343.6573
103	0x4407edb4	543.7141
104	0x43af6baf	350.84128
105	0xc332e772	-178.90408
106	0xc3594598	-217.27185
107	0x440fc68d	575.10236
108	0x43fe7ef5	508.99185
109	0xc36599e0	-229.60107
110	0xc3efc0df	-479.5068
111	0xc328fdc5	-168.99129
112	0xc3995fc0	-306.74805
113	0x43c6e63e	397.79877
114	0x43ac91fb	345.14047
115	0x43f5218c	490.2621
116	0xc3e8d013	-465.62558
117	0x44013ca4	516.9475
118	0x43f69efd	493.2421
119	0xc39ba848	-311.3147
120	0x43113b55	145.23177
121	0x440438ec	528.8894
122	0xc3fbd143	-503.63486
123	0xc3c3eb74	-391.83948
124	0x43dc45d1	440.54544
125	0x43eb6a71	470.83157
126	0xc39c7033	-312.87656
127	0xc3cd80f9	-411.0076
128	0x439a49ef	308.5776
129	0x440c10ae	560.2606
130	0xc3062d52	-134.17703
131	0x436c6d2b	236.42644
132	0xc3d3fc53	-423.97128
133	0x441330c6	588.7621
134	0x4401b095	518.7591
135	0x43ab12e8	342.1477
136	0x4379d051	249.81374
137	0xc357b8b4	-215.7215
138	0xc3bbd0c5	-375.631
139	0xc3e7254f	-462.29147
140	0xc4094434	-549.0657
141	0x43956c38	298.84546
142	0x437af76a	250.96646
143	0xc3eff397	-479.90305
144	0x43acd9e8	345.7024
145	0xc3ceb864	-413.44055
146	0x43f95685	498.67593
147	0x4408108e	544.25867
148	0x4399e1c2	307.76373
149	0x43811801	258.18753
150	0x43dbb24e	439.393
151	0x43f278a2	484.94244
152	0x43e5b708	459.42993
153	0xc3873d5f	-270.47946
154	0x43a932c7	338.3967
155	0x4404f2f9	531.79645
156	0xc3a31b1f	-326.21188
157	0xc3b834d0	-368.4126
158	0x44095761	549.3653
159	0xc3fe4581	-508.543
160	0xc3c7322e	-398.39203
161	0x42ef0e9e	119.52855
162	0x43988a43	305.08017
163	0x4399dc23	307.71982
164	0x4394b49d	297.41104
165	0x43075408	135.32825
166	0xc405ba0d	-534.90704
167	0xc3e09cf6	-449.22626
168	0x438c6f77	280.87082
169	0xc33cc41a	-188.76602
170	0x43b96c34	370.84534
171	0x43a3ecb9	327.8494
172	0xc389777d	-274.9335
173	0x43f8fd35	497.97818
174	0x43b27047	356.87717
175	0x439fe7f1	319.81204
176	0x436ce1f6	236.88266
177	0x4401c607	519.0942
178	0xc3ac3dfe	-344.4843
179	0x44027985	521.89874
180	0xc4028758	-522.11475
181	0x43ce80bf	413.00583
182	0x43f3b94b	487.4476
183	0x437e2ca5	254.1744
184	0x43a52e0a	330.35968
185	0xc3b23b4c	-356.46326
186	0x440fb683	574.85175
187	0x43580d56	216.0521
188	0x43abd58b	343.6683
189	0x4413361a	588.84534
190	0x4345bd30	197.73901
191	0x4407384a	540.8795
192	0xc3eb1616	-470.17255
193	0x43e086f5	449.05435
194	0xc2985eef	-76.18542
195	0xc3b86282	-368.7696
196	0xc4075ac3	-541.41815
197	0x43970845	302.0646
198	0x43b36515	358.7897
199	0x4407d975	543.39777
200	0x4393e4bf	295.78708
201	0x43c95704	402.6798
202	0x43f4b513	489.41464
203	0x43e48151	457.01028
204	0x43889594	273.16858
205	0x441326fa	588.609
206	0x440850d2	545.2628
207	0xc31010f8	-144.06628
208	0xc3b8e04e	-369.75238
209	0xc3813038	-258.3767
210	0xc3af9d12	-351.2271
211	0x43d3c9c8	423.57642
212	0xc39d3e37	-314.48605
213	0xc3c27030	-388.87646
214	0x43c1bf33	387.49374
215	0x43fc17e8	504.18677
216	0xc4050450	-532.0674
217	0xc309a85f	-137.6577
218	0xc3c9c8c7	-403.56857
219	0xc3f4b1a7	-489.3879
220	0x43a784fe	335.039
221	0x4409c77f	551.1171
222	0x43f9372f	498.43112
223	0xc3823ec9	-260.4905
224	0x4409290a	548.64124
225	0x433338c5	179.22176
226	0x43e2012e	452.00922
227	0x43c61ea2	396.23932
228	0xc400fbd5	-515.9349
229	0x43980b88	304.0901
230	0x43f68008	493.00024
231	0xc2963060	-75.09448
232	0xc3ef0406	-478.03143
233	0x4369ee8d	233.93184
234	0x42c89c88	100.305725
235	0xc3a32d95	-326.3561
236	0x43a5f518	331.9148
237	0xc36cb396	-236.7015
238	0x4406ca3d	539.16
239	0x43f5b89c	491.44226
240	0xc3f15421	-482.65726
241	0x43685b9f	232.3579
242	0x439bef38	311.8689
243	0x40eda3f9	7.426266
244	0x439a5299	308.6453
245	0x43c76505	398.7892
246	0x43a82ca4	336.34875
247	0xc3f39d56	-487.2292
248	0xc3708576	-240.52133
249	0x43e0da4d	449.70547
250	0x43d5de1e	427.7353
251	0xc36dd2de	-237.8237
252	0x43105d5d	144.3647
253	0x4302da43	130.85258
254	0xc3caccda	-405.6004
255	0x43cadd73	405.73007

block.0.weight f4 [256, 256]
0	0xc3a53a8b	-330.45737
1	0xc361aada	-225.66739
2	0xc28bb5de	-69.85521
3	0xc38f4202	-286.5157
4	0x43b45d7c	360.73035
5	0x43ac3186	344.3869
6	0x43a96ea1	338.8643
7	0xc391b81b	-291.43832
8	0xc39b0f27	-310.11838
9	0xc1105a66	-9.02207
10	0x43ae298e	348.32465
11	0x43bb9b2e	375.21234
12	0x43a879eb	336.95248
13	0xc318a35a	-152.63809
14	0x43ae0de9	348.10867
15	0x43710b0a	241.04312
16	0x43bb5e20	374.73535
17	0xc3af4236	-350.51727
18	0x43c1dcf8	387.72632
19	0xc2f959e6	-124.67558
20	0x438dc143	283.50986
21	0x43bdd1ca	379.63898
22	0x433a92c0	186.57324
23	0x43be5814	380.6881
24	0x42b5c88c	90.89169
25	0x4332e549	178.89565
26	0x439479b5	296.95084
27	0xc3b25ef4	-356.74182
28	0xc2c60b56	-99.02214
29	0x43b576f9	362.92947
30	0xc39fcbf9	-319.59354
31	0xc0faeb16	-7.841197
32	0x4376de06	246.86728
33	0x43bd485b	378.56528
34	0x433b1c9d	187.11177
35	0xc27eec92	-63.731026
36	0xc243d98d	-48.962452
37	0x435483d0	212.5149
38	0x4315e8d0	149.90942
39	0xc392ebb2	-293.84137
40	0xc3911dcc	-290.2328
41	0xc3890a7a	-274.08185
42	0xc367300f	-231.18773
43	0xc3ada76e	-347.30804
44	0x42d19c9c	104.80588
45	0x43b12ca5	354.3488
46	0xc3a8b4c5	-337.41226
47	0xc2a09e0c	-80.308685
48	0xc33c8e5e	-188.55612
49	0x43b66dc3	364.8575
50	0x43314665	177.27498
51	0x4369fc7c	233.98627
52	0x43aa76b6	340.92743
53	0xc387b00a	-271.3753
54	0xc21bae5e	-38.92028
55	0xc39cc18b	-313.51205
56	0xc335dc80	-181.86133
57	0xc38ea585	-285.29312
58	0x43444a5b	196.29045
59	0x419544ae	18.658535
60	0xc369b49f	-233.70555
61	0x43240d18	164.05115
62	0xc280cf38	-64.404724
63	0xc3b55cba	-362.72443
64	0x439d60a1	314.7549
65	0x43895645	274.67398
66	0x42ca2dfc	101.08981
67	0xc3b803f4	-368.03088
68	0xc391a1b1	-291.2632
69	0x4395a277	299.26926
70	0xc37e12f5	-254.07405
71	0x4393f4df	295.91306
72	0x43a39130	327.13428
73	0xc401aef9	-518.73395
74	0x43bd7d02	378.97662
75	0x43aeebe9	349.84305
76	0x43bc5994	376.69983
77	0x43af2350	350.27588
78	0xc2e8dd26	-116.43193
79	0x43ab64a5	342.7863
80	0xc32cf78a	-172.96695
81	0x4386e698	269.8015
82	0x438c6aeb	280.8353
83	0x4322bb63	162.73198
84	0xc38fd822	-287.68854
85	0xc372ddfe	-242.86716
86	0x43436956	195.41147
87	0xc29dbbbd	-78.86668
88	0xc2a43e74	-82.12198
89	0xc2b4dcbe	-90.43114
90	0x43b6445f	364.53415
91	0x43b31f48	358.2444
92	0x43b2d133	357.63437
93	0xc3b6d3da	-365.6551
94	0x433f26b9	191.15126
95	0xc33621dc	-182.13226
96	0x43ad3375	346.402
97	0x43b24e1f	356.61032
98	0xc3bcf89d	-377.9423
99	0xc3b97350	-370.90088
100	0x4399eaff	307.8359
101	0xc2770a9e	-61.76037
102	0x437bf486	251.95517
103	0x43a55bcb	330.71713
104	0x43a069e9	320.82742
105	0xc3147eca	-148.49527
106	0xc3757585	-245.45906
107	0x43bb07b3	374.06015
108	0x43b9b1ae	371.38812
109	0x432df3c9	173.95229
110	0xc3a79f29	-335.24344
111	0xc3969844	-301.18958
112	0xc3b5f787	-363.9338
113	0x43b41486	360.16034
114	0xc387d6a3	-271.67685
115	0x43a15a46	322.70526
116	0xc38b8f39	-279.11893
117	0x43731c66	243.11093
118	0x437d73c5	253.45222
119	0xc36dca62	-237.79056
120	0xc066ca52	-3.6060987
121	0x428a26ee	69.076035
122	0x43526916	210.41049
123	0x42751216	61.267662
124	0x439d8ca4	315.09875
125	0x43891efd	274.2421
126	0xc3a035a4	-320.41907
127	0xc3aa3c03	-340.46884
128	0x4395c863	299.56552
129	0x43b398f6	359.195
130	0xc3a386bb	-327.05258
131	0x43b051fc	352.6405
132	0x4257cdea	53.951088
133	0x43a21163	324.13583
134	0x43a3fc4f	327.97116
135	0x43a0e9f4	321.82776
136	0x436b7760	235.46631
137	0xc3ab3c83	-342.47275
138	0xc27b9f01	-62.905277
139	0xc39ed119	-317.63358
140	0x40737d89	3.804537
141	0xc1b0cad2	-22.099033
142	0xc1a73940	-20.902954
143	0xc3af7d25	-350.9777
144	0x43af6abf	350.83395
145	0x421e8088	39.62552
146	0x43afbcb0	351.47412
147	0x43bfe13d	383.75967
148	0xc2da8d09	-109.27546
149	0x43439d12	195.61356
150	0x43abab54	343.3385
151	0x43b4b064	361.37805
152	0x43a1ca44	323.5802
153	0x439d5f8e	314.74652
154	0x439ad3e3	309.65536
155	0xc39cb05c	-313.3778
156	0xc29f9c97	-79.80584
157	0x42494faa	50.327797
158	0x431a8e39	154.55556
159	0xc3b54ad1	-362.5845
160	0xc395a9db	-299.327
161	0xc39329b0	-294.32568
162	0x4377df98	247.87341
163	0x42ea7775	117.233315
164	0x43b9b059	371.37772
165	0xc3ad8829	-347.06375
166	0x4298943e	76.289536
167	0xc349c62c	-201.77411
168	0x43b4e9c4	361.8263
169	0x43e3e90a	455.82062
170	0x438b09bf	278.07614
171	0x431eec29	158.9225
172	0xc3476f6e	-199.43527
173	0x43ba90db	373.13168
174	0x4386f4b7	269.91183
175	0x439401f5	296.0153
176	0xc21ccf98	-39.20273
177	0x4384fb15	265.96158
178	0xc3afe273	-351.76913
179	0x43ad9263	347.14365
180	0x42ed7fca	118.74959
181	0x43a5cd73	331.60507
182	0x438b596c	278.6986
183	0x4296d39a	75.413284
184	0xc1cbfe39	-25.499132
185	0xc3b5c65e	-363.54974
186	0x43bc24fe	376.289
187	0x43a15e99	322.73904
188	0x43b73abb	366.45883
189	0x438c3c44	280.47083
190	0xc3b22510	-356.28955
191	0x42fba46d	125.821144
192	0x4390b22a	289.3919
193	0x43ac2302	344.2735
194	0x436b3e68	235.24377
195	0xc2fdddc5	-126.93314
196	0xc3b389f7	-359.07785
197	0x4316d0b0	150.81519
198	0x43bbda4b	375.7054
199	0x4353f849	211.96986
200	0x43724093	242.25224
201	0x43a1a927	323.3215
202	0x438a59ff	276.7031
203	0x427c4c93	63.07478
204	0x439bc6bb	311.55258
205	0x435554a7	213.33067
206	0x43764592	246.27176
207	0x43a87c9f	336.9736
208	0xc396bf7d	-301.496
209	0xc31b64fa	-155.39444
210	0xc3b30243	-358.01767
211	0x439100f8	290.00757
212	0xc2c2c286	-97.37993
213	0xc2df2588	-111.5733
214	0x43b701e5	366.0148
215	0x43b4257a	360.2928
216	0xc3a61a1a	-332.20392
217	0x42768094	61.625565
218	0xc3a07bfb	-320.9686
219	0xc3b85bd6	-368.71747
220	0x42d190d4	104.78287
221	0x433df04c	189.93866
222	0x43b06faa	352.87238
223	0xc39a6aa6	-308.8332
224	0x43b0ef58	353.86987
225	0xbf6ef764	-0.9334624
226	0x430b7037	139.43834
227	0x43a7841c	335.0321
228	0xc3a9a59f	-339.2939
229	0x4380f4d6	257.91278
230	0xc3863dc7	-268.48264
231	0x435bb24c	219.69647
232	0xc39fef0c	-319.86755
233	0x43711882	241.09573
234	0xc39a5736	-308.68134
235	0xc34763b4	-199.38947
236	0x432cdbd9	172.85878
237	0xc3b00bb3	-352.0914
238	0x43aeada8	349.3567
239	0x43892c8c	274.34802
240	0xc3a8472f	-336.55612
241	0x43642805	228.15633
242	0x43a066be	320.80267
243	0x42c7c3f8	99.88275
244	0x4386bf83	269.4962
245	0x42e4e4e9	114.44709
246	0x4397707f	302.87888
247	0xc3a2cf18	-325.61792
248	0x429032f1	72.099495
249	0x43a0307b	320.37875
250	0x4370db15	240.85579
251	0xc3b9c8eb	-371.56967
252	0xc2ad3eab	-86.6224
253	0x42a412a7	82.03643
254	0x4394a7f9	297.3123
255	0x4316ad4d	150.67696

block.0.bias f4 [256]
0	0xc35b6284	-219.38483
1	0x439eb4b5	317.41177
2	0x43a306b8	326.0525
3	0x4408a585	546.58624
4	0x43d09411	417.15677
5	0xc26d47eb	-59.320232
6	0x42b38699	89.762886
7	0x43c68994	397.07483
8	0x439a0822	308.06354
9	0xc3b22451	-356.28372
10	0x42d999c8	108.800354
11	0xc3c7e162	-399.7608
12	0xc3c0ae1c	-385.36023
13	0x436efa69	238.97816
14	0x43b65794	364.6842
15	0xc3b9f455	-371.90884
16	0x438037c4	256.43567
17	0xc3abcb13	-343.58652
18	0xc30b1e51	-139.11842
19	0xc3d13540	-418.41602
20	0xc3c0cfb2	-385.62262
21	0x43a57e90	330.98877
22	0x43d1e8b9	419.81815
23	0xc3a6da07	-333.70334
24	0xc3b24885	-356.56656
25	0x43c30bc4	390.09192
26	0x437dfc43	253.9854
27	0xc34a764a	-202.46207
28	0x42e9a5b6	116.823654
29	0x43a2d5b7	325.66965
30	0x43f9bd2e	499.47797
31	0xc3b23668	-356.42505
32	0xc31ba0d9	-155.62831
33	0xc1e125d9	-28.14348
34	0x4187ba8e	16.966091
35	0xc3ad3c07	-346.46896
36	0x431af0e4	154.94098
37	0xc3d2710a	-420.88312
38	0xc3054734	-133.27814
39	0xc3c1c351	-387.5259
40	0xc3ae2e95	-348.36392
41	0x43ddff3b	443.994
42	0x43b5d466	363.65936
43	0xc3867979	-268.949
44	0x43a068db	320.81918
45	0xc2bd4104	-94.62698
46	0xc3643c6d	-228.23604
47	0x4395401e	298.50092
48	0x434bf15e	203.94284
49	0xc348f58b	-200.95915
50	0xc39e4d26	-316.60272
51	0x439b179b	310.18442
52	0xc3a33269	-326.39383
53	0x43998596	307.04364
54	0xc3d2d0a2	-421.62994
55	0x4322c24a	162.75894
56	0x43afcf95	351.62173
57	0xc3c4b3c1	-393.40433
58	0xc35e86f3	-222.52715
59	0xc3a6e9a4	-333.82532
60	0xc3b261bc	-356.76355
61	0xc39cc45b	-313.53403
62	0x438e5af8	284.7107
63	0xc3b5578e	-362.68402
64	0x43b3d970	359.69873
65	0xc3a09841	-321.18948
66	0x43a836bf	336.4277
67	0x42a7ace6	83.83769
68	0xc3bd1e94	-378.2389
69	0x43b9012f	370.00925
70	0xc3b1e1f1	-355.76517
71	0x43838a5b	263.0809
72	0xc06864ff	-3.6311643
73	0xc24f6828	-51.851715
74	0xc3a0993b	-321.1971
75	0x43b4026c	360.01892
76	0xc227c383	-41.94093
77	0x43aa037e	340.02728
78	0x43c5fe06	395.98456
79	0x43983d78	304.48022
80	0x43a181af	323.01315
81	0x43b3a6da	359.30353
82	0x43918b6a	291.08917
83	0xc3ade7f6	-347.8122
84	0xc3c67173	-396.88632
85	0xc3bed58d	-381.66837
86	0x43c983e8	403.03052
87	0x43abcf6e	343.62054
88	0xc3e1e027	-451.7512
89	0xc3b9bee0	-371.4912
90	0x43581338	216.07507
91	0x438d0ec4	282.11536
92	0x42742628	61.037262
93	0x42bbe6ba	93.95064
94	0xc31c1957	-156.09898
95	0xc390b7bb	-289.4354
96	0x43a8d153	337.63535
97	0x4401a3aa	518.55725
98	0x42001c3b	32.02757
99	0xc33fd3b3	-191.82695
100	0xc395ee35	-299.861
101	0x43b82e9f	368.36423
102	0x438ea502	285.28912
103	0x43575ad3	215.35478
104	0xc3b65e83	-364.73837
105	0xc3aef295	-349.89517
106	0xc3ef9735	-479.1813
107	0x43b1fa73	355.95663
108	0x43cefead	413.98965
109	0x43a22073	324.2535
110	0xc399b558	-307.41675
111	0xc393cfef	-295.62448
112	0x43c6afc9	397.37332
113	0x43e013a9	448.1536
114	0x43b39442	359.15826
115	0x42ba36c4	93.106964
116	0xc3e138fa	-450.44513
117	0x43aae1ed	341.76505
118	0xc3ba2d62	-372.35455
119	0xc307d536	-135.83286
120	0x42ccfdd5	102.495766
121	0x43bb3bfe	374.4687
122	0x42f83615	124.10563
123	0xc3ad0d20	-346.10254
124	0xc3a35f58	-326.74487
125	0xc3c0d15d	-385.63565
126	0x4281af5b	64.84249
127	0xc3d2bb67	-421.46408
128	0xc2c28bd4	-97.2731
129	0x43a8fe6f	337.98776
130	0x4403982a	526.37756
131	0x43b95cf2	370.72614
132	0x43a95039	338.62674
133	0xc38028e0	-256.31934
134	0xc37bca27	-251.78966
135	0x43abb59a	343.41876
136	0x42ccf805	102.48441
137	0xc290b8b3	-72.36074
138	0xc3b9aef4	-371.36682
139	0x424f6707	51.850613
140	0xc39828b6	-304.31805
141	0xc3316184	-177.38092
142	0x43d07172	416.8863
143	0x43a45ee3	328.7413
144	0x4395ff7a	299.9959
145	0xc39a760a	-308.92218
146	0x43dc0474	440.0348
147	0x4399e649	307.7991
148	0x43dacd21	437.60257
149	0xc3c25fa3	-388.74716
150	0xc23a2c50	-46.543274
151	0xc3c58de2	-395.10846
152	0xc3a14e10	-322.60986
153	0xc3d21981	-420.19925
154	0xc3939bac	-295.2162
155	0xc38e08d1	-284.06888
156	0xc3aeac3e	-349.34564
157	0xc2a95720	-84.670166
158	0xc3ba1140	-372.13477
159	0x42cfafcc	103.84335
160	0x43b44b30	360.5874
161	0xc3c3f819	-391.93826
162	0x43abea43	343.83017
163	0x4403405e	525.00574
164	0xc3c0e4a9	-385.7864
165	0x43e4419e	456.51263
166	0xc3b1e4bd	-355.78702
167	0xc2a6c223	-83.37917
168	0x43a15940	322.69727
169	0xc3cfaf63	-415.3702
170	0x4181f4bf	16.244505
171	0xc38fdba5	-287.71597
172	0x440061c5	513.52765
173	0x43cb7098	406.87964
174	0x43a618a1	332.1924
175	0xc3b0bed4	-353.49084
176	0xc3a9d450	-339.6587
177	0xc3c52098	-394.25464
178	0xc26e23a8	-59.53482
179	0xc2b97ad6	-92.739914
180	0xc3de6367	-444.77658
181	0x438c053e	280.04095
182	0x4390d4a3	289.66122
183	0x43bc5f86	376.74628
184	0x43349c7e	180.6113
185	0x43af57a7	350.68478
186	0x438fc0b0	287.50537
187	0xc372b8bc	-242.72162
188	0xc3bb68cb	-374.8187
189	0x43bbde80	375.73828
190	0x4282a6fb	65.32613
191	0xc3c10e07	-386.1096
192	0x43a62c28	332.34497
193	0xc3c51d72	-394.23004
194	0xc3bc5db7	-376.73215
195	0xc3ad5756	-346.6823
196	0x434e920a	206.57047
197	0xc39bae5b	-311.36215
198	0x43d757be	430.6855
199	0x432ed046	174.81357
200	0x43a0b47e	321.4101
201	0xc331c5b3	-177.77226
202	0xc3b43d74	-360.4801
203	0xc3b1f9d3	-355.95175
204	0xc362f5e4	-226.96051
205	0x43b64040	364.50195
206	0xc3a9027f	-338.0195
207	0x43b8f108	369.88306
208	0x43d609dd	428.07706
209	0x436aff9c	234.99847
210	0xbfb9056b	-1.4454778
211	0xc3b50c9c	-362.0985
212	0x43bcba2a	377.4544
213	0xc3b2b0a7	-357.3801
214	0x43c75b98	398.71558
215	0x43cf08c0	414.06836
216	0x43c709a7	398.0754
217	0xc3bd4546	-378.5412
218	0x43b17785	354.93375
219	0xc3a94e7e	-338.61322
220	0xc318d140	-152.81738
221	0x43acbd55	345.47916
222	0xc3aacc1b	-341.59457
223	0xc3ab50f8	-342.63257
224	0x4398feaa	305.98956
225	0x4397945b	303.15903
226	0x43ddd295	443.64517
227	0x43cf21fc	414.2655
228	0x42fa5fc6	125.18706
229	0x43453d69	197.23988
230	0xbe1c612c	-0.15271443
231	0x43baba66	373.45624
232	0xc3ccd699	-409.67654
233	0xc33ed62a	-190.83658
234	0xc3b9ef7b	-371.87094
235	0x43e275a5	452.9191
236	0xc3a952c5	-338.64664
237	0xc3b5e35a	-363.77618
238	0x43377891	183.47096
239	0x43c3f7bd	391.93546
240	0xc39c97ab	-313.1849
241	0xc34cd3b1	-204.82692
242	0x431c37c8	156.2179
243	0x4355f9dd	213.97603
244	0x42f83751	124.10804
245	0x43a09f0f	321.24265
246	0x43d9dcf2	435.72614
247	0x4221ce1c	40.45128
248	0x410057e0	8.021454
249	0xc2f8afae	-124.343124
250	0x43d9fcfb	435.9764
251	0x43ec87f6	473.0622
252	0x43de0f41	444.11917
253	0xc2a04037	-80.12542
254	0x43c79864	399.19055
255	0x43940c3a	296.09552

block.2.weight f4 [256]
0	0x43ae6e52	348.86188
1	0xc2a53c2a	-82.61751
2	0xc22547d9	-41.320164
3	0x439f72db	318.8973
4	0x4393c2d6	295.52216
5	0x42b637f0	91.10925
6	0x43a88cda	337.1004
7	0xc30ccafa	-140.79288
8	0x43d60570	428.04248
9	0xc37da606	-253.64853
10	0x438a3063	276.37802
11	0x420a53d5	34.581867
12	0x434e2c24	206.17242
13	0xc2b13594	-88.604645
14	0xc35fe862	-223.90775
15	0xc11d0468	-9.813576
16	0x42ce88c5	103.26713
17	0x43770eb9	247.05751
18	0xc2d18274	-104.75479
19	0x43cd2dc7	410.35764
20	0x43feb990	509.4497
21	0x439ff3f9	319.90604
22	0xc2e17d4e	-112.744736
23	0x43a62ac8	332.33423
24	0xc30c24ae	-140.14328
25	0xc2ffda35	-127.926186
26	0xc2927e22	-73.24635
27	0xc12321ce	-10.195753
28	0x43cbbc94	407.47327
29	0x43ae80b0	349.00537
30	0xc3b3eeab	-359.8646
31	0x43a89ab0	337.2085
32	0x43c23d32	388.4781
33	0x43985697	304.67648
34	0xc3119fc1	-145.62404
35	0x4300e3e5	128.89021
36	0x431f3759	159.2162
37	0x43bb64f3	374.78867
38	0x43c0b5ca	385.42023
39	0xc2572e1f	-53.79504
40	0x42fa7095	125.21989
41	0x43e1b43c	451.40808
42	0x43c10aa5	386.08316
43	0xc322d6a9	-162.83852
44	0xc3dcbc34	-441.47034
45	0x43242c88	164.17395
46	0xc37bedec	-251.92938
47	0x43cc3159	408.38553
48	0xc2e6ab81	-115.33497
49	0xc2c0f31d	-96.47483
50	0x43582a93	216.1663
51	0xc3d11bbd	-418.2167
52	0xc3088de1	-136.55421
53	0xc1b832fd	-23.024897
54	0x42daf8d8	109.48602
55	0xc302e3c6	-130.88974
56	0xc30d6f25	-141.43416
57	0x41ceb37f	25.837645
58	0xc2e2b930	-113.361694
59	0x43b0d26b	353.6439
60	0xc3161b4e	-150.10666
61	0xc29ad54c	-77.416595
62	0x43afd735	351.6813
63	0x434fe0a3	207.87749
64	0x439a3ea2	308.48932
65	0x4317c426	151.7662
66	0x43bb3a55	374.45572
67	0x432e39c8	174.22571
68	0x43b59f98	363.24683
69	0x43aed043	349.62704
70	0xc2ac1b89	-86.05378
71	0x43bbe8da	375.81915
72	0x433f1fa3	191.12358
73	0xc3adc8ec	-347.5697
74	0x43b8f158	369.8855
75	0xc1dbdfe3	-27.48432
76	0x43a18f3a	323.11896
77	0xc3b7197c	-366.1991
78	0x436a64ec	234.39423
79	0xc2db2010	-109.56262
80	0x43a752fd	334.64835
81	0x43942447	296.28342
82	0xc3a39499	-327.16092
83	0x42cc49f7	102.14446
84	0x438f3d14	286.47717
85	0xc3956216	-298.7663
86	0x4254c7d6	53.195152
87	0x43bd212f	378.25925
88	0xc3352df7	-181.17955
89	0x439bbfee	311.49945
90	0x439c61c3	312.76376
91	0x43365c80	182.36133
92	0x43bd3f96	378.49677
93	0x4389e1ce	275.7641
94	0xc2f590b4	-122.78262
95	0x43c84110	400.5083
96	0x43786c75	248.42366
97	0x43c9aedc	403.3661
98	0x43bbf213	375.8912
99	0xc2ab7e3b	-85.746544
100	0x43ceb943	413.44736
101	0x43b31912	358.19586
102	0x43a5ebb0	331.8413
103	0x42808dc0	64.276855
104	0xc3ab24b1	-342.28665
105	0x43a61314	332.14905
106	0xc387e0b2	-271.75543
107	0xc346d84d	-198.84492
108	0x42a2b173	81.34658
109	0x43b2c38a	357.52765
110	0xc393a420	-295.28223
111	0xc312640c	-146.39081
112	0x43d53563	426.41708
113	0x439a348c	308.41052
114	0x43b10031	354.0015
115	0x43a09820	321.18848
116	0x43afdefe	351.74213
117	0xc22b3b8c	-42.80815
118	0xc2b264cc	-89.19687
119	0xc17f47b1	-15.955003
120	0x42f99e93	124.809715
121	0x4367d896	231.84604
122	0x43cdd842	411.6895
123	0x43635879	227.3456
124	0x43c73bb1	398.46634
125	0xc2adc35d	-86.88157
126	0x43e8e74f	465.8071
127	0x43406ff6	192.43735
128	0x42c6664e	99.199814
129	0x43e89c3f	465.22067
130	0xc3231695	-163.08821
131	0xc2d60e84	-107.02835
132	0x4358dc86	216.86142
133	0x43c0dd0e	385.727
134	0x43a3ef84	327.87122
135	0xc335eca4	-181.92438
136	0x43c07e6f	384.98776
137	0xc06d7d1b	-3.7107608
138	0x4335e38a	181.88882
139	0xc1493a12	-12.576677
140	0xc2d00502	-104.00978
141	0x3fb4b9ac	1.4119163
142	0x43cc317f	408.3867
143	0x43835b9e	262.71576
144	0x4302b0be	130.6904
145	0x43b775bb	366.91977
146	0x43a270f2	324.8824
147	0xc2917802	-72.73439
148	0x43d5208b	426.25424
149	0x42bdd797	94.921074
150	0x4388a3bc	273.27917
151	0xc39615ff	-300.17184
152	0x42ead9c5	117.42533
153	0x43906384	288.77747
154	0xc33f9cbf	-191.61229
155	0xc2c88321	-100.25611
156	0x43dc909d	441.1298
157	0x4398817c	305.0116
158	0x42e3b06c	113.844574
159	0xc38ee083	-285.754
160	0x43ba0813	372.06308
161	0x43b97bbc	370.96667
162	0x43b51a97	362.20773
163	0x43011e26	129.11777
164	0x430940a2	137.25247
165	0x43af40dd	350.50674
166	0xc34950a5	-201.31502
167	0xc32cbfe3	-172.74956
168	0x43ad0ec9	346.1155
169	0x43de2abb	444.33383
170	0x42994414	76.632965
171	0x4300ff24	128.99664
172	0x43a0ef77	321.87082
173	0x438c5487	280.66037
174	0x43c3281b	390.31332
175	0x43b8d99c	369.70007
176	0x43b0fdc7	353.98264
177	0x43c109ce	386.0766
178	0xc258669b	-54.1002
179	0x43b26248	356.76782
180	0xc2abd9e5	-85.925575
181	0x43058b3f	133.54393
182	0x43811937	258.197
183	0x42ee72c8	119.22418
184	0xc30008f7	-128.03502
185	0x43b6dfeb	365.74936
186	0xc2989c00	-76.30469
187	0x4405834f	534.0517
188	0x4387859f	271.0439
189	0x43b109ed	354.07755
190	0xc2b686ed	-91.26353
191	0x43cb30af	406.38034
192	0xc2da4b9b	-109.14767
193	0x4332cabc	178.79193
194	0xc274a9e9	-61.165928
195	0x43ab633c	342.77527
196	0x43ae0582	348.04303
197	0x439ed543	317.6661
198	0x435390dd	211.56587
199	0x43c812df	400.14743
200	0x43a1b83e	323.4394
201	0xc240cf8d	-48.202686
202	0xc390b377	-289.40207
203	0x43b9cfab	371.6224
204	0x41755a35	15.334523
205	0x43b13ad9	354.45975
206	0x4396d549	301.6663
207	0x43c06991	384.82474
208	0x43809a5c	257.20593
209	0x43af4fb3	350.62265
210	0xc2343396	-45.050377
211	0x4333b8a2	179.72122
212	0xc3b1d739	-355.68143
213	0xc3195263	-153.32182
214	0x433aa92e	186.66086
215	0x43b75bf6	366.71844
216	0x43a29da0	325.23145
217	0xc36a4c0e	-234.29709
218	0x43a29153	325.13535
219	0xc30d925d	-141.57173
220	0xc215b8f0	-37.430603
221	0xc2fb655f	-125.69799
222	0x438da9d8	283.3269
223	0xc2b2f0d4	-89.47037
224	0x43bb1e02	374.23444
225	0xc30328e2	-131.1597
226	0x43b9f347	371.9006
227	0x438c41bd	280.51358
228	0x43c14673	386.55038
229	0x42d4eda6	106.46416
230	0x43c5439d	394.52823
231	0x418349b4	16.410988
232	0xc3b81b63	-368.21396
233	0x42b9c216	92.879074
234	0x3fa6efb9	1.3041908
235	0x43c7d0d3	399.63144
236	0x43c7ecd1	399.85013
237	0xc2e478eb	-114.23617
238	0xc247c5ac	-49.94304
239	0x43ac86ea	345.05402
240	0xc3a9c0e6	-339.50702
241	0xc3053e57	-133.24352
242	0x439ef808	317.93774
243	0x43bffc20	383.96973
244	0x437cdf65	252.87263
245	0x43ba02bf	372.02145
246	0x43be5a7a	380.70685
247	0xc1f98455	-31.189615
248	0xc28b4b10	-69.64661
249	0xc35de19f	-221.88133
250	0x43b4991e	361.19623
251	0xc30a5baf	-138.35814
252	0x43f2d594	485.66858
253	0x43c9a76b	403.30795
254	0x4384d8fb	265.69516
255	0x439e461e	316.5478

block.2.bias f4 [256]
0	0xc302a7f3	-130.65605
1	0xc34a9ff0	-202.62476
2	0x4351a1c6	209.63193
3	0xc2bca7cd	-94.327736
4	0xc35bf21a	-219.94571
5	0xc35312b1	-211.07301
6	0xc359ccae	-217.79953
7	0x43737c2e	243.48508
8	0x4335adf6	181.67953
9	0x40375d3c	2.8650656
10	0xc37786be	-247.52634
11	0x42d4a341	106.318855
12	0xc37261cd	-242.38203
13	0x4387be9b	271.4891
14	0xc3374fbf	-183.31151
15	0xc30f3c87	-143.23643
16	0x431e341e	158.20358
17	0xc33e10f1	-190.06618
18	0xc374f888	-244.97083
19	0xc205d77e	-33.46044
20	0xc31f771f	-159.46532
21	0x429e2a8b	79.08309
22	0x4308654e	136.39572
23	0xc348e729	-200.90297
24	0x4375b33e	245.70016
25	0xc36bf67c	-235.96283
26	0xc36e7ecb	-238.49529
27	0x4380dbb0	257.7163
28	0x429a2ca2	77.08717
29	0x431405ca	148.02261
30	0x4326f244	166.94635
31	0x429fb086	79.84477
32	0xc31349e2	-147.2886
33	0xc386493e	-268.5722
34	0x43220eaf	162.05736
35	0xc2bf25bb	-95.57369
36	0xc3420df5	-194.05452
37	0x432be2bd	171.8857
38	0x42464f5d	49.577503
39	0xc25dfb08	-55.495148
40	0x42a927aa	84.57747
41	0xc32dc319	-173.7621
42	0x43162d55	150.17708
43	0x43055e29	133.36781
44	0xc31ffa37	-159.9774
45	0x435ef56b	222.95866
46	0xc32f6eee	-175.43332
47	0x435964dc	217.39398
48	0x42ca9d71	101.3075
49	0x42865b30	67.1781
50	0x424be5c0	50.974365
51	0x42850e48	66.52789
52	0xc2934e53	-73.65298
53	0x415576d2	13.341509
54	0xc301de8b	-129.86931
55	0x42febe6c	127.37192
56	0xc362e0c6	-226.87802
57	0x434a1bc0	202.1084
58	0x42e730ea	115.595535
59	0x431742e7	151.26134
60	0x4379e6b4	249.90118
61	0xc315be21	-149.74269
62	0x4301e1f9	129.8827
63	0x4383286d	262.31583
64	0xc34d6745	-205.4034
65	0x4328eb71	168.9197
66	0xc3467d84	-198.4903
67	0x4318ecfe	152.92575
68	0x431c86fa	156.52725
69	0x43085c42	136.36038
70	0x4335b151	181.69264
71	0x4345f1fc	197.94525
72	0xc3821492	-260.1607
73	0x434aa4a1	202.64308
74	0xc342f324	-194.94977
75	0x431b6e54	155.43097
76	0xc38fcb72	-287.58942
77	0xc354fa8c	-212.9787
78	0xc32189b5	-161.53792
79	0xc3625aaa	-226.35416
80	0x42ff6b79	127.70991
81	0xc34d24d1	-205.14381
82	0xc365a04d	-229.62617
83	0xc3057046	-133.43857
84	0x4199c401	19.220705
85	0xc290d491	-72.41517
86	0xc35ee2d9	-222.88612
87	0x42e3402e	113.62535
88	0x4329a44c	169.64178
89	0x424d9c78	51.4028
90	0x42ef7386	119.72563
91	0x43243fbd	164.24898
92	0xc2ce57ef	-103.171745
93	0x4303d8b7	131.84654
94	0x4319b61c	153.71136
95	0x43024c8a	130.29898
96	0xc2fd0d13	-126.525536
97	0x43314708	177.27747
98	0x41c0fa83	24.12232
99	0x438319f4	262.20276
100	0x4352cfd4	210.81183
101	0x42502a3c	52.041245
102	0x42ffa63c	127.82468
103	0x4201528c	32.330612
104	0xc2ab6b85	-85.71
105	0xc2357fd3	-45.37483
106	0x43228bce	162.54611
107	0xc36d33e4	-237.2027
108	0x4225e9c8	41.478302
109	0xc3512c93	-209.17412
110	0x433acb4f	186.79417
111	0x4339bcc3	185.73735
112	0x43255dcb	165.36638
113	0xc2955258	-74.66083
114	0xc3576499	-215.39296
115	0xc3570461	-215.0171
116	0xc2b62e8a	-91.0909
117	0x42dff994	111.98746
118	0xc335b7f3	-181.71855
119	0x4382433a	260.5252
120	0xc33dfc5e	-189.98581
121	0x42fa1a96	125.051926
122	0x42fe64b2	127.19667
123	0x42b91993	92.54995
124	0xc342a5c4	-194.64752
125	0xc347af3a	-199.68448
126	0x430fd569	143.83363
127	0x432f12b6	175.07309
128	0xc36c14cf	-236.08128
129	0x42f1056d	120.5106
130	0x432e3edc	174.24554
131	0xc3348a4a	-180.54019
132	0x431d51a0	157.31885
133	0x431e3ae8	158.2301
134	0x42e48535	114.26017
135	0xc3651021	-229.063
136	0xc33aec2e	-186.92258
137	0x437afb75	250.98225
138	0x4328412c	168.25458
139	0x434d5780	205.3418
140	0x4197e2c9	18.985735
141	0xc2ebfc23	-117.992455
142	0xc3421a29	-194.10219
143	0x431fd80a	159.8439
144	0xc369b8d7	-233.72203
145	0x430e7bd5	142.48372
146	0xc0b663dc	-5.69969
147	0xc1972c01	-18.896486
148	0xc31e7d4d	-158.48946
149	0x43450aa1	197.04152
150	0xc3642f3d	-228.18452
151	0xc32ad2ce	-170.82346
152	0xc366c05f	-230.75145
153	0x40e9fcce	7.31211
154	0xc350707b	-208.43938
155	0xc30d95b7	-141.58482
156	0x43058b4b	133.54411
157	0xbff70c45	-1.9300619
158	0xc3138f88	-147.56067
159	0x4371dcbc	241.86224
160	0xc30b1b6d	-139.10713
161	0xc26a3148	-58.548126
162	0xc3454e58	-197.30603
163	0xc35ea993	-222.6624
164	0xc333c674	-179.7752
165	0xc2fcb602	-126.355484
166	0xbf3d1d61	-0.73872954
167	0xc31c9150	-156.56763
168	0x4254df58	53.21811
169	0xc2dccd23	-110.40066
170	0xc27323bb	-60.784893
171	0xc19a538d	-19.290796
172	0xc2a7f897	-83.98553
173	0xc381cb64	-259.589
174	0xc38fadb8	-287.35718
175	0xc3667e1f	-230.49266
176	0xc12cfbff	-10.8115225
177	0xc2ad30df	-86.59545
178	0x436f30a6	239.19003
179	0xc2923fcd	-73.12461
180	0x42f342fb	121.63082
181	0xc351bde5	-209.74178
182	0xc323c748	-163.77844
183	0xc333990b	-179.59782
184	0xc31d30a9	-157.19008
185	0x433aeb40	186.91895
186	0xc31e2e04	-158.17975
187	0xc2dbcf35	-109.9047
188	0x42b956d9	92.669624
189	0xc355ed66	-213.92734
190	0x435413e6	212.07773
191	0x427012f0	60.018494
192	0xc34a9172	-202.56815
193	0x42c9bd60	100.86987
194	0x434b2401	203.14064
195	0xc2c740ce	-99.62657
196	0x433d8998	189.53748
197	0x41af65d6	21.924725
198	0x42b1e8cc	88.95468
199	0xc31c1d99	-156.11562
200	0x43336950	179.41138
201	0x435289aa	210.53775
202	0x4370cf9a	240.81094
203	0x42f72dfe	123.58983
204	0xc3757b95	-245.48274
205	0xc34d69e8	-205.4137
206	0xc3010609	-129.02357
207	0xc3ad71c4	-346.8888
208	0x430caa5f	140.66551
209	0xc28ceb20	-70.45923
210	0xc32e0229	-174.00844
211	0xc352e769	-210.90395
212	0xc2ff1f90	-127.561646
213	0x42f66e43	123.215355
214	0xc3193248	-153.19641
215	0xc2fe117d	-127.03416
216	0xc330109c	-176.06488
217	0x428e7d01	71.24415
218	0xc3370f64	-183.06012
219	0x438251c1	260.6387
220	0xc2c3427a	-97.62984
221	0x43635a09	227.3517
222	0xc34ea821	-206.65675
223	0x40e97638	7.295681
224	0xc279e910	-62.4776
225	0xc35544f7	-213.2694
226	0xc34a1e5b	-202.11858
227	0x42ba66d1	93.20081
228	0x43188b2b	152.54362
229	0xc3709607	-240.58604
230	0x43247378	164.45105
231	0x431ece20	158.80518
232	0x42e20038	113.00043
233	0xc3741e2a	-244.11783
234	0x4330aa14	176.66437
235	0x429c802a	78.25032
236	0x432030e2	160.19095
237	0x435f26bc	223.1513
238	0xc3164353	-150.26299
239	0xc34728ea	-199.15982
240	0x434cc4dc	204.76898
241	0x4301d083	129.8145
242	0xc294f8ab	-74.48568
243	0x433925c2	185.14749
244	0xc34fdade	-207.85495
245	0xc35598cc	-213.59686
246	0xc3413d00	-193.23828
247	0x437cee34	252.93048
248	0x4339dec7	185.87022
249	0xc33169b4	-177.4129
250	0xc34028a4	-192.15875
251	0x433b5014	187.3128
252	0x4311039e	145.01413
253	0x430e1c57	142.1107
254	0xc3289048	-168.5636
255	0xc351b51f	-209.7075

block.2.running_mean f4 [256]
0	0x4f375f95	3.0764946e+09
1	0x51699894	6.270545e+10
2	0x49d34b17	1.7309149e+06
3	0x4e270553	7.00536e+08
4	0x4a65522b	3.7571948e+06
5	0x47ce2c22	105560.266
6	0x4a170ac8	2.474674e+06
7	0x49f06ab1	1.9694941e+06
8	0x486577f8	234975.88
9	0x51ae0aae	9.3437936e+10
10	0x4a12d058	2.405398e+06
11	0x4be61c1a	3.0160948e+07
12	0x47f5d868	125872.81
13	0x49eb1b4f	1.9259939e+06
14	0x51acfce1	9.287212e+10
15	0x51cdf741	1.1057707e+11
16	0x51e8848a	1.2483201e+11
17	0x506919cc	1.5643128e+10
18	0x517a3d0b	6.7172872e+10
19	0x4cf2f90d	1.2738775e+08
20	0x4ab5f8dc	5.962862e+06
21	0x51b4f39b	9.714764e+10
22	0x49f123b0	1.975414e+06
23	0x46e2d69a	29035.3
24	0x4b56a801	1.4067713e+07
25	0x51b09f8b	9.482387e+10
26	0x516db22d	6.3806034e+10
27	0x49a94ad9	1.3868431e+06
28	0x4c0f6184	3.758645e+07
29	0x49eadfa0	1.924084e+06
30	0x4a290b4b	2.7696188e+06
31	0x5194bcbf	7.9852724e+10
32	0x48fe8294	521236.62
33	0x50b0031f	2.3623956e+10
34	0x4989a358	1.127531e+06
35	0x4c528a70	5.5192e+07
36	0x491e4327	648242.44
37	0x49189454	624965.25
38	0x507f7219	1.714267e+10
39	0x51cd3c7f	1.1018541e+11
40	0x489746e7	309815.22
41	0x4a153701	2.4447362e+06
42	0x4a061281	2.1966402e+06
43	0x4c069d91	3.5288644e+07
44	0x4f8f83f9	4.8155817e+09
45	0x521406b6	1.5894194e+11
46	0x477137ad	61751.676
47	0x48d098e5	427207.16
48	0x517ddc28	6.814502e+10
49	0x4a1758bc	2.479663e+06
50	0x511b8d93	4.1755947e+10
51	0x51daffb7	1.1757413e+11
52	0x4bb784e2	2.4054212e+07
53	0x5104407c	3.5501097e+10
54	0x48f5e958	503626.75
55	0x49925b9e	1.1989638e+06
56	0x499199bc	1.1927595e+06
57	0x47de6601	113868.01
58	0x49a45334	1.3461505e+06
59	0x498f472d	1.1737336e+06
60	0x4c921805	7.659524e+07
61	0x513f67f3	5.138017e+10
62	0x499ff356	1.3103148e+06
63	0x49ce4a57	1.6899309e+06
64	0x49c4b085	1.6112806e+06
65	0x4b50fc6c	1.3696108e+07
66	0x49934231	1.2063421e+06
67	0x49792ef2	1.0206551e+06
68	0x47f1cc53	123800.65
69	0x49bb37e3	1.5336924e+06
70	0x5161a268	6.0568273e+10
71	0x49ad01b6	1.4172708e+06
72	0x5165c9e3	6.1683413e+10
73	0x4d1099c2	1.5162474e+08
74	0x509c25aa	2.0957712e+10
75	0x518fc151	7.7177954e+10
76	0x4fef4213	8.0281697e+09
77	0x4f90f3bd	4.8637855e+09
78	0x51d08bc6	1.11962276e+11
79	0x5126d710	4.4785795e+10
80	0x5180c22a	6.912667e+10
81	0x4ff9095c	8.3562803e+09
82	0x49dd4de2	1.8129242e+06
83	0x41ef3aa5	29.903635
84	0x50537c18	1.4192501e+10
85	0x4677ff15	15871.7705
86	0x4a006abc	2.103983e+06
87	0x51c8db04	1.0783349e+11
88	0x48a0b2f1	329111.53
89	0x5034b5de	1.2127271e+10
90	0x49455f03	808432.2
91	0x4a01521b	2.1187908e+06
92	0x49357635	743267.3
93	0x49827804	1.0688005e+06
94	0x4b82b668	1.7132752e+07
95	0x49c8d29c	1.6451395e+06
96	0x4c9b5c53	8.145372e+07
97	0x4fd70986	7.215451e+09
98	0x4e7ccd61	1.06032954e+09
99	0x50c17e9c	2.5970401e+10
100	0x49e83b97	1.9024509e+06
101	0x4f6d7951	3.9841508e+09
102	0x4a1e0681	2.5890882e+06
103	0x51bbf334	1.00904894e+11
104	0x4e387f2b	7.7383546e+08
105	0x501b5dd2	1.0426468e+10
106	0x4ace6b84	6.76397e+06
107	0x52137dd6	1.5836784e+11
108	0x49d5fe72	1.7530382e+06
109	0x4a341bff	2.9509118e+06
110	0x4faef588	5.8706534e+09
111	0x48b80d62	376939.06
112	0x4f32efed	3.0020682e+09
113	0x4fbe0f46	6.377344e+09
114	0x51f12693	1.29466786e+11
115	0x4fd5b5e1	7.170933e+09
116	0x4f1b36f2	2.6040694e+09
117	0x4a04edb5	2.1779012e+06
118	0x51c50ea7	1.057943e+11
119	0x48e269f1	463695.53
120	0x490cd552	576853.1
121	0x51c8b8fc	1.0776212e+11
122	0x49d35af3	1.7314224e+06
123	0x4b6b3585	1.5414661e+07
124	0x4cbaf927	9.802783e+07
125	0x51bf7b5e	1.0280106e+11
126	0x47a30023	83456.27
127	0x47bcc4eb	96649.836
128	0x50c8da04	2.6957849e+10
129	0x4a31d9f1	2.9139162e+06
130	0x4a1c9976	2.5657255e+06
131	0x497c55b1	1.03356306e+06
132	0x4f57740c	3.6147067e+09
133	0x51842324	7.0940656e+10
134	0x49177010	620289.0
135	0x5227911e	1.7992355e+11
136	0x48599662	222809.53
137	0x490f2512	586321.1
138	0x48c625bd	405805.9
139	0x48d7f26e	442259.44
140	0x49256008	677376.5
141	0x52134c11	1.581591e+11
142	0x4f19a52e	2.5777393e+09
143	0x51259223	4.4445086e+10
144	0x496b2530	963155.0
145	0x50c7f5e9	2.6838256e+10
146	0x519117b1	7.789597e+10
147	0x51c0bd5b	1.0347632e+11
148	0x4a233675	2.6740772e+06
149	0x49f087e1	1.9704281e+06
150	0x49c88282	1.6425762e+06
151	0x4909b0ec	563982.75
152	0x51cc8be2	1.0981502e+11
153	0x4cf03753	1.25942424e+08
154	0x52013657	1.3874061e+11
155	0x50d866af	2.9044865e+10
156	0x4b4ea725	1.3543205e+07
157	0x4b99e11f	2.0169278e+07
158	0x47297014	43376.08
159	0x49d58016	1.7489948e+06
160	0x4f8f1f4c	4.802386e+09
161	0x4615acd0	9579.203
162	0x51d9da9c	1.16959445e+11
163	0x4a27f2df	2.7516718e+06
164	0x48363da3	186614.55
165	0x4a3b66e6	3.0703935e+06
166	0x51ff0cba	1.3692877e+11
167	0x49b5b702	1.4886082e+06
168	0x4a2104e1	2.6381362e+06
169	0x489d364a	321970.3
170	0x48d6ecde	440166.94
171	0x502b499a	1.149491e+10
172	0x4a24aefa	2.6981745e+06
173	0x51732bfa	6.527593e+10
174	0x51c18011	1.0388466e+11
175	0x51333b90	4.8112402e+10
176	0x48b7e4d4	376614.62
177	0x4a09f93d	2.2605592e+06
178	0x49075d0c	554448.75
179	0x4bf0bc56	3.1553708e+07
180	0x479e8e38	81180.44
181	0x49745593	1.0007932e+06
182	0x4986e6a8	1.105109e+06
183	0x4fc8f875	6.743452e+09
184	0x516827c6	6.231873e+10
185	0x47fd8ea4	129821.28
186	0x51f9bbcc	1.34074696e+11
187	0x4ccd7a32	1.077293e+08
188	0x4b3e133c	1.2456764e+07
189	0x4a11bf8d	2.3879392e+06
190	0x49837740	1.076968e+06
191	0x4db3d341	3.771208e+08
192	0x49c8e361	1.6456761e+06
193	0x47a85e9a	86205.2
194	0x519c446b	8.3895345e+10
195	0x47fca126	129346.3
196	0x498095d0	1.05337e+06
197	0x4df293f9	5.0872298e+08
198	0x4a4dbb80	3.37072e+06
199	0x490246bd	533611.8
200	0x497781b5	1.0137873e+06
201	0x484d1b15	210028.33
202	0x51889915	7.333548e+10
203	0x4696b108	19288.516
204	0x47e465fc	116939.97
205	0x4a1efcf7	2.6048618e+06
206	0x47850823	68112.27
207	0x50148aa0	9.968452e+09
208	0x49e8b9eb	1.9064934e+06
209	0x4a54e55e	3.4880875e+06
210	0x52119430	1.563141e+11
211	0x488004e5	262183.16
212	0x498b18dd	1.1394836e+06
213	0x48a21af3	331991.6
214	0x4f4e87ff	3.4650191e+09
215	0x4a461947	3.2456498e+06
216	0x51b5d372	9.761707e+10
217	0x45aa55af	5450.7104
218	0x4fcaee24	6.809209e+09
219	0x4845ca10	202536.25
220	0x52074982	1.4526346e+11
221	0x49d780d7	1.7654029e+06
222	0x516879f6	6.240491e+10
223	0x50d41454	2.8464816e+10
224	0x4984711e	1.0849638e+06
225	0x49833151	1.0747301e+06
226	0x4a1f91ec	2.614395e+06
227	0x4a05e031	2.1934202e+06
228	0x499852f9	1.2478391e+06
229	0x490a3aef	566190.94
230	0x51341fc8	4.8351707e+10
231	0x4a012109	2.1156502e+06
232	0x4c2cf7e5	4.5342612e+07
233	0x49182ddd	623325.8
234	0x51c733fa	1.06946314e+11
235	0x4a051589	2.1804502e+06
236	0x4939f8f1	761743.06
237	0x4c43ec14	5.1359824e+07
238	0x523a183d	1.9981764e+11
239	0x4a17c8c1	2.4868322e+06
240	0x47c1dcad	99257.35
241	0x4e38a6e4	7.744863e+08
242	0x4d4544b5	2.068509e+08
243	0x49d1c2a5	1.7183566e+06
244	0x5026bc28	1.1189395e+10
245	0x51760e05	6.6049823e+10
246	0x4a700ce2	3.9329845e+06
247	0x4978d80d	1.0192648e+06
248	0x494b1faa	831994.6
249	0x4f76e57a	4.142234e+09
250	0x4a4ba25f	3.3363438e+06
251	0x51836104	7.053355e+10
252	0x4a20577c	2.627039e+06
253	0x49d05e05	1.7069446e+06
254	0x4fefe429	8.0494147e+09
255	0x51b5374b	9.728959e+10
